Basic/pkl/net.pkl (torch_old, 8054 bytes, 3 tensors)

weight f4 [20, 1]
-0.7569202 1.3618013 0.38111123 0.1518021 -0.35146603 0.18332767 -1.277936 -0.935009
-0.12941015 -0.19990423 -0.19464996 0.13128021 -0.6852503 -0.09809828 -0.9056477 -0.050195906
0.16682915 -0.79081124 1.360816 0.84130305
00000000: 86c5 41bf 814f ae3f 0321 c33e 0272 1b3e
00000010: 5bf3 b3be 40ba 3b3e 6893 a3bf c05c 6fbf
00000020: 1884 04be b2b3 4cbe 5252 47be 526e 063e
00000030: 906c 2fbf c0e7 c8bd 87d8 67bf 399a 4dbd
00000040: 43d5 2a3e 9b72 4abf 382f ae3f a35f 573f

bias f4 [20]
-0.46586162 -0.50198364 -0.22646019 -0.5575556 0.21083985 -0.27323103 -0.12412875 -0.57564616
-0.13285124 0.06660109 -0.76626116 0.45578644 -0.42262897 -0.21094441 -0.5584183 -0.7424733
0.15688644 -0.23146474 -0.022393862 -0.5939032
00000000: 6a85 eebe 0082 00bf 2ee5 67be f7bb 0ebf
00000010: 67e6 573e f0e4 8bbe 3737 febd 8c5d 13bf
00000020: 280a 08be 2766 883d b129 44bf d75c e93e
00000030: d362 d8be d001 58be 80f4 0ebf bb12 3ebf
00000040: d7a6 203e 1805 6dbe 5573 b7bc 0a0a 18bf

weight f4 [1, 20]
0.16425262 0.68888813 0.27137223 -0.11421935 0.011442379 0.088275194 0.4070658 0.18633537
0.070373 -0.04531166 0.50602716 0.0574922 0.47087848 0.008789226 0.18912956 0.5309362
0.048892885 0.34909654 0.1509746 0.4988259
00000000: d731 283e f95a 303f 4df1 8a3e d6eb e9bd
00000010: d178 3b3c a0c9 b43d ee6a d03e b3ce 3e3e
00000020: b81f 903d b898 39bd ff8a 013f f17c 6b3d
00000030: fc16 f13e b000 103c 2eab 413e 6feb 073f
00000040: e843 483d c8bc b23e 1699 1a3e 1c66 ff3e
